{"architecture":{"class_name":"Functional","config":{"name":"sequential_13","layers":[{"class_name":"InputLayer","config":{"batch_input_shape":[null,57],"dtype":"float32","sparse":false,"ragged":false,"name":"input_1"},"name":"input_1","inbound_nodes":[]},{"class_name":"Dense","config":{"name":"layer1","trainable":true,"batch_input_shape":[null,57],"dtype":"float32","units":58,"activation":"selu","use_bias":true,"kernel_initializer":{"class_name":"GlorotUniform","config":{"seed":null}},"bias_initializer":{"class_name":"Zeros","config":{}},"kernel_regularizer":null,"bias_regularizer":null,"activity_regularizer":null,"kernel_constraint":null,"bias_constraint":null},"name":"layer1","inbound_nodes":[[["input_1",0,0,{}]]]},{"class_name":"Dense","config":{"name":"layer2","trainable":true,"dtype":"float32","units":120,"activation":"selu","use_bias":true,"kernel_initializer":{"class_name":"GlorotUniform","config":{"seed":null}},"bias_initializer":{"class_name":"Zeros","config":{}},"kernel_regularizer":null,"bias_regularizer":null,"activity_regularizer":null,"kernel_constraint":null,"bias_constraint":null},"name":"layer2","inbound_nodes":[[["layer1",0,0,{}]]]},{"class_name":"Dense","config":{"name":"layer3","trainable":true,"dtype":"float32","units":120,"activation":"selu","use_bias":true,"kernel_initializer":{"class_name":"GlorotUniform","config":{"seed":null}},"bias_initializer":{"class_name":"Zeros","config":{}},"kernel_regularizer":null,"bias_regularizer":null,"activity_regularizer":null,"kernel_constraint":null,"bias_constraint":null},"name":"layer3","inbound_nodes":[[["layer2",0,0,{}]]]},{"class_name":"Dense","config":{"name":"layer4","trainable":true,"dtype":"float32","units":120,"activation":"selu","use_bias":true,"kernel_initializer":{"class_name":"GlorotUniform","config":{"seed":null}},"bias_initializer":{"class_name":"Zeros","config":{}},"kernel_regularizer":null,"bias_regularizer":null,"activity_regularizer":null,"kernel_constraint":null,"bias_constraint":null},"name":"layer4","inbound_nodes":[[["layer3",0,0,{}]]]},{"class_name":"Dense","config":{"name":"layer5","trainable":true,"dtype":"float32","units":64,"activation":"linear","use_bias":true,"kernel_initializer":{"class_name":"GlorotUniform","config":{"seed":null}},"bias_initializer":{"class_name":"Zeros","config":{}},"kernel_regularizer":null,"bias_regularizer":null,"activity_regularizer":null,"kernel_constraint":null,"bias_constraint":null},"name":"layer5","inbound_nodes":[[["layer4",0,0,{}]]]},{"class_name":"Dense","config":{"name":"layer6","trainable":true,"dtype":"float32","units":64,"activation":"linear","use_bias":true,"kernel_initializer":{"class_name":"GlorotUniform","config":{"seed":null}},"bias_initializer":{"class_name":"Zeros","config":{}},"kernel_regularizer":null,"bias_regularizer":null,"activity_regularizer":null,"kernel_constraint":null,"bias_constraint":null},"name":"layer6","inbound_nodes":[[["layer5",0,0,{}]]]},{"class_name":"Dense","config":{"name":"layer7","trainable":true,"dtype":"float32","units":36,"activation":"selu","use_bias":true,"kernel_initializer":{"class_name":"GlorotUniform","config":{"seed":null}},"bias_initializer":{"class_name":"Zeros","config":{}},"kernel_regularizer":null,"bias_regularizer":null,"activity_regularizer":null,"kernel_constraint":null,"bias_constraint":null},"name":"layer7","inbound_nodes":[[["layer6",0,0,{}]]]},{"class_name":"Dense","config":{"name":"output","trainable":true,"dtype":"float32","units":26,"activation":"softmax","use_bias":true,"kernel_initializer":{"class_name":"GlorotUniform","config":{"seed":null}},"bias_initializer":{"class_name":"Zeros","config":{}},"kernel_regularizer":null,"bias_regularizer":null,"activity_regularizer":null,"kernel_constraint":null,"bias_constraint":null},"name":"output","inbound_nodes":[[["layer7",0,0,{}]]]}],"input_layers":[["input_1",0,0]],"output_layers":[["output",0,0]]},"keras_version":"2.9.0","backend":"tensorflow"},"image_data_format":"channels_last","input_shapes":[[57]],"output_shapes":[[26]],"tests":[{"inputs":[{"shape":[57],"values":["…"]}],"outputs":[{"shape":[26],"values":["JBUgLnhJkyhmWv0tIetuNE4rIC3UVhkg8zQ+KkW7dS9ks5Y3Del7PxV+jyxGv1wtmJOaLZ4wWCeooDU4vFSFMC7fdDC+4XotXBgSJzQ6gTxA/AE51G0cNRd/kzLle6UmBSVvN4Uliyc="]}]}],"trainable_params":{"layer1":{"weights":["…","…","…","…","…","…","…","…","…","…","…","…","…","…","…","…","…","…"],"bias":["…"]},"layer2":{"weights":["…","…","…","…","…","…","…","…","…","…","…","…","…","…","…","…","…","…","…","…","…","…","…","…","…","…","…","…","…","…","…","…","…","…","…","…","…"],"bias":["…"]},"layer3":{"weights":["…","…","…","…","…","…","…","…","…","…","…","…","…","…","…","…","…","…","…","…","…","…","…","…","…","…","…","…","…","…","…","…","…","…","…","…","…","…","…","…","…","…","…","…","…","…","…","…","…","…","…","…","…","…","…","…","…","…","…","…","…","…","…","…","…","…","…","…","…","…","…","…","…","…","…"],"bias":["…"]},"layer4":{"weights":["…","…","…","…","…","…","…","…","…","…","…","…","…","…","…","…","…","…","…","…","…","…","…","…","…","…","…","…","…","…","…","…","…","…","…","…","…","…","…","…","…","…","…","…","…","…","…","…","…","…","…","…","…","…","…","…","…","…","…","…","…","…","…","…","…","…","…","…","…","…","…","…","…","…","…"],"bias":["…"]},"layer5":{"weights":["…","…","…","…","…","…","…","…","…","…","…","…","…","…","…","…","…","…","…","…","…","…","…","…","…","…","…","…","…","…","…","…","…","…","…","…","…","…","…","…"],"bias":["…"]},"layer6":{"weights":["…","…","…","…","…","…","…","…","…","…","…","…","…","…","…","…","…","…","…","…","…","…"],"bias":["…"]},"layer7":{"weights":["…","…","…","…","…","…","…","…","…","…","…","…"],"bias":["qynSPFU+H7wSRLo7qQItvAn5QrzWfvu7G1CuuvZDYrxYJ5u8kQ/iO+/f5LwINBy84kIRPQ4XhLzdUbW7/F90PGdOujrlI+y7VMKuOSTNHToDMYY7/HMqPJ+lXTuCDcG7UeZlvAAYh7oZ1Q09SWoYvfxyRzzo5v87gLkIPO64GrwfMNa49WAMuKPTs7xDYPU7"]},"output":{"weights":["…","…","…","…","…"],"bias":["JysSvd2zQjyKO/q8JXqZvPqLMjtyYYY8tctFPF5ezzzxZUC8/8yYPMm4mbyXYWm7V4kLOrUfOryXbNU8nZB6vN6+Az2mAcE86vwVOwdDILunku07GmQAvdHblLzl2Yu8jHyxPKD/Zzw="]}},"hash":"65b30db4b2c85e4ddaf004b08389b289fb333ca4506aa6eba9f4816fae41f00b"}